trained.tflite (tflite, 56672 bytes, 21 tensors)

model_1/logits/Conv2D i1 [4, 1, 1, 32]
00000000: 0adc d3e3 5cdf 05e2 4c10 12ff c0d8 e81e
00000010: 02e1 8105 f317 e052 0b0d f813 38d8 0d07
00000020: 4151 a1fc d427 792e c3bc 961f 51c1 7a81
00000030: 7a9a dace 0f9e b5db f9a8 3ec4 a48d bee9
00000040: b863 fe45 c0fc 521e b29c 4cbc b73e 812e
00000050: 2d2e 1ac6 f617 ead6 1ee1 4eb3 ce11 1838
00000060: 52b5 4913 e46d 2dfe f9a2 2075 50fb 94de
00000070: 68ac 7ffa 92fc fed3 53c9 af4d a06b 2937
10 -36 -45 -29 92 -33 5 -30
76 16 18 -1 -64 -40 -24 30
2 -31 -127 5 -13 23 -32 82
11 13 -8 19 56 -40 13 7
65 81 -95 -4 -44 39 121 46
-61 -68 -106 31 81 -63 122 -127
122 -102 -38 -50 15 -98 -75 -37
-7 -88 62 -60 -92 -115 -66 -23
-72 99 -2 69 -64 -4 82 30
-78 -100 76 -68 -73 62 -127 46
45 46 26 -58 -10 23 -22 -42
30 -31 78 -77 -50 17 24 56
82 -75 73 19 -28 109 45 -2
-7 -94 32 117 80 -5 -108 -34
104 -84 127 -6 -110 -4 -2 -45
83 -55 -81 77 -96 107 41 55

model_1/head/Conv2D i1 [32, 1, 1, 96]
00000000: dddb 6305 5c13 c0bd 37a6 ad08 2a05 f01b
00000010: dbe7 d4c1 d4b2 0867 8a0d 46e5 6af1 fbb7
00000020: 45cd b83a a0c6 b627 49bb b55f 3aab 66fd
00000030: 0ddf c45f cdd6 cc71 1933 7a9a c046 ec29
00000040: e810 435b 1058 56a5 5eae 304e a70f d818
00000050: 3505 610a d4ef b459 2669 0f81 fe2c 2710
00000060: be1c c4e6 e84d 2508 46b2 b056 49f6 1940
00000070: 5fee 1e7f d6ff 2218 2a16 dc54 130a 55d2
00000080: 2a61 ea1f 2e3c f0cf d506 fcb4 ef28 ebdd
00000090: f0c4 5a34 1c58 c9cd 2b60 354b c866 ccbe
000000a0: d827 4116 6e1f 1402 9b5f e22a 52de e534
000000b0: cc4a cca5 2060 ced6 4550 4011 4f52 300d
000000c0: 4a26 c470 f09e 5369 9545 da6f 37f3 4e81
000000d0: b9d1 1e1f 9cef 6b10 d84a 640d b13f 4e4d
000000e0: b2dc ab8a 9d55 75ef 81ac 0df7 a56e e3b0
000000f0: 590b 49a3 bc2d 0420 9259 b7f9 ed2c d842
-35 -37 99 5 92 19 -64 -67
55 -90 -83 8 42 5 -16 27
-37 -25 -44 -63 -44 -78 8 103
-118 13 70 -27 106 -15 -5 -73
69 -51 -72 58 -96 -58 -74 39
73 -69 -75 95 58 -85 102 -3
13 -33 -60 95 -51 -42 -52 113
25 51 122 -102 -64 70 -20 41
-24 16 67 91 16 88 86 -91
94 -82 48 78 -89 15 -40 24
53 5 97 10 -44 -17 -76 89
38 105 15 -127 -2 44 39 16
-66 28 -60 -26 -24 77 37 8
70 -78 -80 86 73 -10 25 64
95 -18 30 127 -42 -1 34 24
42 22 -36 84 19 10 85 -46
42 97 -22 31 46 60 -16 -49
-43 6 -4 -76 -17 40 -21 -35
-16 -60 90 52 28 88 -55 -51
43 96 53 75 -56 102 -52 -66
-40 39 65 22 110 31 20 2
-101 95 -30 42 82 -34 -27 52
-52 74 -52 -91 32 96 -50 -42
69 80 64 17 79 82 48 13
74 38 -60 112 -16 -98 83 105
-107 69 -38 111 55 -13 78 -127
-71 -47 30 31 -100 -17 107 16
-40 74 100 13 -79 63 78 77
-78 -36 -85 -118 -99 85 117 -17
-127 -84 13 -9 -91 110 -29 -80
89 11 73 -93 -68 45 4 32
-110 89 -73 -7 -19 44 -40 66

model_1/block_6_expand/Conv2D i1 [96, 1, 1, 16]
00000000: e07a f881 eff4 e9cd 12fc 0669 f3d4 e546
00000010: e425 a1f4 e4db 23a5 3e32 c633 f206 2f81
00000020: 0d24 e715 3e22 b7c8 7fea f1f9 ea61 972d
00000030: 28d0 15a3 18ef e512 7f10 5329 e839 fa55
00000040: c927 2828 09f5 e93c 1fe8 fcf7 81f9 da0c
00000050: 0063 640c 3241 8855 ce6b e5d6 3cd3 81e3
00000060: 03e5 7fb6 2600 ec52 d2c0 46da ff43 0d28
00000070: 1f7f eac8 5010 f9df 6351 d60f 29ed 3820
00000080: 10c3 07aa 1cd1 15c0 1b38 3d03 087f 4945
00000090: 0cd5 f17f 2000 36be c464 1cf5 f3bc ef0b
000000a0: e5f7 d481 fd01 0624 35cd 33dc dbc8 082a
000000b0: 0505 1af9 52de 5ec4 ae3a 0715 017f a9d5
000000c0: 45e4 a9f6 27bf 0f16 290c c8df c17f e60e
000000d0: e613 e309 0381 011c 02fe 09fb 12f0 1403
000000e0: 0eea 4ddc 3103 81a9 ebda 190a 18cf f2d1
000000f0: abfc f6e4 0107 7f2f f326 42d6 1654 40e5
-32 122 -8 -127 -17 -12 -23 -51
18 -4 6 105 -13 -44 -27 70
-28 37 -95 -12 -28 -37 35 -91
62 50 -58 51 -14 6 47 -127
13 36 -25 21 62 34 -73 -56
127 -22 -15 -7 -22 97 -105 45
40 -48 21 -93 24 -17 -27 18
127 16 83 41 -24 57 -6 85
-55 39 40 40 9 -11 -23 60
31 -24 -4 -9 -127 -7 -38 12
0 99 100 12 50 65 -120 85
-50 107 -27 -42 60 -45 -127 -29
3 -27 127 -74 38 0 -20 82
-46 -64 70 -38 -1 67 13 40
31 127 -22 -56 80 16 -7 -33
99 81 -42 15 41 -19 56 32
16 -61 7 -86 28 -47 21 -64
27 56 61 3 8 127 73 69
12 -43 -15 127 32 0 54 -66
-60 100 28 -11 -13 -68 -17 11
-27 -9 -44 -127 -3 1 6 36
53 -51 51 -36 -37 -56 8 42
5 5 26 -7 82 -34 94 -60
-82 58 7 21 1 127 -87 -43
69 -28 -87 -10 39 -65 15 22
41 12 -56 -33 -63 127 -26 14
-26 19 -29 9 3 -127 1 28
2 -2 9 -5 18 -16 20 3
14 -22 77 -36 49 3 -127 -87
-21 -38 25 10 24 -49 -14 -47
-85 -4 -10 -28 1 7 127 47
-13 38 66 -42 22 84 64 -27

model_1/block_5_project/Conv2D i1 [16, 1, 1, 96]
00000000: f8fe 02e3 12f3 d906 2200 eef7 03e4 ed0e
00000010: f708 f803 04d3 f806 120c 037f 1dd2 19f3
00000020: f901 06fa ea04 c9f9 e7f7 0027 0a0f 0ffd
00000030: 1200 f1f3 13e9 fd47 1202 d9e3 fd16 f7de
00000040: dabc f825 f604 13e3 fae0 f8ee f014 fb05
00000050: fede 1413 f3fa f593 07e8 0ee7 35d5 e4fe
00000060: 34d4 a0a8 6a06 2511 efaa c9e8 15e7 c32d
00000070: c200 2a3c 0a15 f7c6 26fe fabd 1fcc be20
00000080: ec07 04e2 f1dd 0411 dc0a c9ee d94a 08e7
00000090: fdce fac9 cb1f 3706 cbf4 ccce fdec f0ce
000000a0: bf62 00fc e2dc e90c 3f9b d7fd 37bf 0a0a
000000b0: 17d3 390b c527 df08 21d7 1b00 1cf2 247f
000000c0: d512 cb22 4f30 504f 2181 feea e7dc 1e2b
000000d0: 10f3 d312 2101 4517 1e2a f5d9 03fd 45cb
000000e0: 1616 f352 b8bb 2f32 f5e9 2606 ddfb 0530
000000f0: 010a e3e6 7be9 ea38 2e07 33fa 1107 32f7
-8 -2 2 -29 18 -13 -39 6
34 0 -18 -9 3 -28 -19 14
-9 8 -8 3 4 -45 -8 6
18 12 3 127 29 -46 25 -13
-7 1 6 -6 -22 4 -55 -7
-25 -9 0 39 10 15 15 -3
18 0 -15 -13 19 -23 -3 71
18 2 -39 -29 -3 22 -9 -34
-38 -68 -8 37 -10 4 19 -29
-6 -32 -8 -18 -16 20 -5 5
-2 -34 20 19 -13 -6 -11 -109
7 -24 14 -25 53 -43 -28 -2
52 -44 -96 -88 106 6 37 17
-17 -86 -55 -24 21 -25 -61 45
-62 0 42 60 10 21 -9 -58
38 -2 -6 -67 31 -52 -66 32
-20 7 4 -30 -15 -35 4 17
-36 10 -55 -18 -39 74 8 -25
-3 -50 -6 -55 -53 31 55 6
-53 -12 -52 -50 -3 -20 -16 -50
-65 98 0 -4 -30 -36 -23 12
63 -101 -41 -3 55 -65 10 10
23 -45 57 11 -59 39 -33 8
33 -41 27 0 28 -14 36 127
-43 18 -53 34 79 48 80 79
33 -127 -2 -22 -25 -36 30 43
16 -13 -45 18 33 1 69 23
30 42 -11 -39 3 -3 69 -53
22 22 -13 82 -72 -69 47 50
-11 -23 38 6 -35 -5 5 48
1 10 -29 -26 123 -23 -22 56
46 7 51 -6 17 7 50 -9

model_1/block_5_depthwise_BN/FusedBatchNormV3;model_1/block_5_depthwise/depthwise;model_1/block_6_expand/Conv2D i1 [1, 3, 3, 96]
00000000: cbb7 f67f 164c 54c5 f3ed edf9 e502 2306
00000010: f6d4 1a13 1681 7f0b ad0c 31e3 8381 2417
00000020: 0919 3cf1 e0f6 1f01 f11b 9846 18c0 2231
00000030: ee30 eb15 08f8 1230 a5d0 c1ea fb00 0d25
00000040: 44e6 4b0f 000e 137f 1718 23fe f515 7ffa
00000050: ef0b e413 7f13 b8ef 04de f2d6 02e6 f01b
00000060: 7f81 4c6a d67f 308b 4702 ea7f 7f9f f214
00000070: 0b7f 7e90 7fb3 504f 818d bcde cb2c c1ed
00000080: a636 81b2 d4f3 ce42 007f 7f4f ca93 90d2
00000090: f081 2c55 49df 2e53 cd2d b188 d7d8 c242
000000a0: 49c2 191c b41e ee5c 717f 1213 013d dd34
000000b0: 437f 7fe8 fb41 937f 8c9d 0881 a581 d96c
000000c0: aff5 20ac 0fee 45f9 52dc e20f f0fd f7f8
000000d0: f8f0 04fa e999 1e02 8c60 08ca 7b2f ef0b
000000e0: fe0f 0be3 f623 1614 190c 8d41 13f1 2413
000000f0: f107 f407 faff 0013 bb09 d933 0729 2100
-53 -73 -10 127 22 76 84 -59
-13 -19 -19 -7 -27 2 35 6
-10 -44 26 19 22 -127 127 11
-83 12 49 -29 -125 -127 36 23
9 25 60 -15 -32 -10 31 1
-15 27 -104 70 24 -64 34 49
-18 48 -21 21 8 -8 18 48
-91 -48 -63 -22 -5 0 13 37
68 -26 75 15 0 14 19 127
23 24 35 -2 -11 21 127 -6
-17 11 -28 19 127 19 -72 -17
4 -34 -14 -42 2 -26 -16 27
127 -127 76 106 -42 127 48 -117
71 2 -22 127 127 -97 -14 20
11 127 126 -112 127 -77 80 79
-127 -115 -68 -34 -53 44 -63 -19
-90 54 -127 -78 -44 -13 -50 66
0 127 127 79 -54 -109 -112 -46
-16 -127 44 85 73 -33 46 83
-51 45 -79 -120 -41 -40 -62 66
73 -62 25 28 -76 30 -18 92
113 127 18 19 1 61 -35 52
67 127 127 -24 -5 65 -109 127
-116 -99 8 -127 -91 -127 -39 108
-81 -11 32 -84 15 -18 69 -7
82 -36 -30 15 -16 -3 -9 -8
-8 -16 4 -6 -23 -103 30 2
-116 96 8 -54 123 47 -17 11
-2 15 11 -29 -10 35 22 20
25 12 -115 65 19 -15 36 19
-15 7 -12 7 -6 -1 0 19
-69 9 -39 51 7 41 33 0

model_1/block_5_expand/Conv2D i1 [96, 1, 1, 16]
00000000: 0436 e54e 1427 1f02 262f a275 1281 1f89
00000010: 162b fcc0 0ef1 7981 f766 f9d0 e2d4 3938
00000020: a679 bbaa 0fb4 4d7d 8153 62f5 01e4 2eaa
00000030: 9e73 f248 ac28 7f59 0e73 b528 1abf ae91
00000040: 04e4 3a5e b567 0e48 25f7 0a18 1b09 81f1
00000050: 09e3 3a08 f2f5 1c12 c16a c181 0922 dac8
00000060: 0901 5dd0 4f5f ac9d f2e1 43bb 7fda 1cca
00000070: 27fe 7ff0 fffe f8f5 d1f6 c2e1 fe04 2612
00000080: 0237 625c a15f 473c 40ff 329c 9bec 819b
00000090: 26ed 4448 4dc9 ede5 4bd7 27f1 fb07 81ae
000000a0: c3bc e1f9 8f17 fd4f 1f7f 25eb e71c 65c4
000000b0: 20d8 2acd 05e7 9481 d430 fae2 3ae5 3ebd
000000c0: d6e5 eccd dadf b1ff dbb3 0c12 0b79 7f43
000000d0: d081 d60d 03eb 07f6 46f1 06f5 0617 7236
000000e0: e9d1 3e21 2712 167f 0e56 1407 0b25 cf7a
000000f0: 0cf1 0929 13f3 4f06 0681 0ada feed f4e8
4 54 -27 78 20 39 31 2
38 47 -94 117 18 -127 31 -119
22 43 -4 -64 14 -15 121 -127
-9 102 -7 -48 -30 -44 57 56
-90 121 -69 -86 15 -76 77 125
-127 83 98 -11 1 -28 46 -86
-98 115 -14 72 -84 40 127 89
14 115 -75 40 26 -65 -82 -111
4 -28 58 94 -75 103 14 72
37 -9 10 24 27 9 -127 -15
9 -29 58 8 -14 -11 28 18
-63 106 -63 -127 9 34 -38 -56
9 1 93 -48 79 95 -84 -99
-14 -31 67 -69 127 -38 28 -54
39 -2 127 -16 -1 -2 -8 -11
-47 -10 -62 -31 -2 4 38 18
2 55 98 92 -95 95 71 60
64 -1 50 -100 -101 -20 -127 -101
38 -19 68 72 77 -55 -19 -27
75 -41 39 -15 -5 7 -127 -82
-61 -68 -31 -7 -113 23 -3 79
31 127 37 -21 -25 28 101 -60
32 -40 42 -51 5 -25 -108 -127
-44 48 -6 -30 58 -27 62 -67
-42 -27 -20 -51 -38 -33 -79 -1
-37 -77 12 18 11 121 127 67
-48 -127 -42 13 3 -21 7 -10
70 -15 6 -11 6 23 114 54
-23 -47 62 33 39 18 22 127
14 86 20 7 11 37 -49 122
12 -15 9 41 19 -13 79 6
6 -127 10 -38 -2 -19 -12 -24

model_1/block_4_project/Conv2D i1 [16, 1, 1, 96]
00000000: f51c f912 2645 e8d7 2a00 0e16 0911 1242
00000010: 04f8 f6f8 62c8 16f1 e1d1 d79b fef6 410f
00000020: 7bee f9ee fff0 e80e e707 17ef fcdb 0417
00000030: fb00 f9f6 e2ea 0c00 1c20 ebe7 b71f 03ff
00000040: 1906 3dfa 0c05 0bdf b302 09fe ea96 08f1
00000050: 27e7 c8dd 16ef 041b f9fd 0edf 070c 027f
00000060: 4d81 2d55 f1c7 e8cc f9ac ea40 0892 d2bb
00000070: a4e8 0ffa f484 d10e 73c6 a439 de78 122a
00000080: 04f7 d50f e8cc 42cd 1fb7 4ccb d0e8 4efd
00000090: 270a 08cb 4abc 0cee ee0b f3a1 359a 16b4
000000a0: 1bb3 141e 122e d50f 8221 0263 2a5c 26cd
000000b0: 2bff b51c b065 fb36 c01b fdf1 f3ea 1d01
000000c0: 0026 0fdd f2f1 ee39 37f5 1b15 0310 3212
000000d0: ec0a 0914 f1cd 0de2 0501 e914 ed08 48c8
000000e0: 17df d32f 177f cf01 ede9 f42a dee4 be16
000000f0: 0717 f2e9 1a14 09e0 010d 001f e60f 4341
-11 28 -7 18 38 69 -24 -41
42 0 14 22 9 17 18 66
4 -8 -10 -8 98 -56 22 -15
-31 -47 -41 -101 -2 -10 65 15
123 -18 -7 -18 -1 -16 -24 14
-25 7 23 -17 -4 -37 4 23
-5 0 -7 -10 -30 -22 12 0
28 32 -21 -25 -73 31 3 -1
25 6 61 -6 12 5 11 -33
-77 2 9 -2 -22 -106 8 -15
39 -25 -56 -35 22 -17 4 27
-7 -3 14 -33 7 12 2 127
77 -127 45 85 -15 -57 -24 -52
-7 -84 -22 64 8 -110 -46 -69
-92 -24 15 -6 -12 -124 -47 14
115 -58 -92 57 -34 120 18 42
4 -9 -43 15 -24 -52 66 -51
31 -73 76 -53 -48 -24 78 -3
39 10 8 -53 74 -68 12 -18
-18 11 -13 -95 53 -102 22 -76
27 -77 20 30 18 46 -43 15
-126 33 2 99 42 92 38 -51
43 -1 -75 28 -80 101 -5 54
-64 27 -3 -15 -13 -22 29 1
0 38 15 -35 -14 -15 -18 57
55 -11 27 21 3 16 50 18
-20 10 9 20 -15 -51 13 -30
5 1 -23 20 -19 8 72 -56
23 -33 -45 47 23 127 -49 1
-19 -23 -12 42 -34 -28 -66 22
7 23 -14 -23 26 20 9 -32
1 13 0 31 -26 15 67 65

model_1/block_4_depthwise_BN/FusedBatchNormV3;model_1/block_4_depthwise/depthwise;model_1/block_6_expand/Conv2D i1 [1, 3, 3, 96]
00000000: ef08 e96d f119 bec7 10f9 65f6 01f7 fb36
00000010: 070e de05 4f00 22db 020f 2b2f 160c 1431
00000020: fe1a 09f3 0332 c7e5 1509 1b12 abc5 17fa
00000030: f6eb f7f9 3004 f801 00dd 19e0 1aff 7f1c
00000040: f1f6 08c7 4723 05f9 51de 4205 1181 1d41
00000050: 000d 7ff2 241d e6ed 25f8 f152 0214 fc0d
00000060: d10e f70b 35f8 f381 290c 81f9 eff3 0358
00000070: 12e1 f6ef 529b 7f19 c4e2 96ef 1c22 cd12
00000080: 770d f300 e77f c281 08ee e00f 2f81 7fd3
00000090: b530 3007 27c0 2339 242c 9d55 7f20 04ed
000000a0: 29da a5fb 26e1 f22d cfd0 69fd e4c5 df3d
000000b0: bf3f ef0a f232 35d9 e636 f548 81e1 1581
000000c0: 00ff e8b8 0914 2612 fcfd 033c fff4 f508
000000d0: f50d f111 0a17 17dd 01e2 070c fa06 2cb0
000000e0: 2a10 0aeb 0b07 deea 0903 ee08 16e4 1300
000000f0: 07f9 04fc 0504 fd08 fa2e 07fc 09f2 04f1
-17 8 -23 109 -15 25 -66 -57
16 -7 101 -10 1 -9 -5 54
7 14 -34 5 79 0 34 -37
2 15 43 47 22 12 20 49
-2 26 9 -13 3 50 -57 -27
21 9 27 18 -85 -59 23 -6
-10 -21 -9 -7 48 4 -8 1
0 -35 25 -32 26 -1 127 28
-15 -10 8 -57 71 35 5 -7
81 -34 66 5 17 -127 29 65
0 13 127 -14 36 29 -26 -19
37 -8 -15 82 2 20 -4 13
-47 14 -9 11 53 -8 -13 -127
41 12 -127 -7 -17 -13 3 88
18 -31 -10 -17 82 -101 127 25
-60 -30 -106 -17 28 34 -51 18
119 13 -13 0 -25 127 -62 -127
8 -18 -32 15 47 -127 127 -45
-75 48 48 7 39 -64 35 57
36 44 -99 85 127 32 4 -19
41 -38 -91 -5 38 -31 -14 45
-49 -48 105 -3 -28 -59 -33 61
-65 63 -17 10 -14 50 53 -39
-26 54 -11 72 -127 -31 21 -127
0 -1 -24 -72 9 20 38 18
-4 -3 3 60 -1 -12 -11 8
-11 13 -15 17 10 23 23 -35
1 -30 7 12 -6 6 44 -80
42 16 10 -21 11 7 -34 -22
9 3 -18 8 22 -28 19 0
7 -7 4 -4 5 4 -3 8
-6 46 7 -4 9 -14 4 -15

model_1/block_4_expand/Conv2D i1 [96, 1, 1, 16]
00000000: 22f6 7c7f 1dd2 0fd2 651e beba 373d f2c0
00000010: 7a28 e31c 72ec 314e 7534 c87d 31f3 6581
00000020: 04c1 fe09 d444 d14d d1ad 172e f781 698e
00000030: 6e66 f707 81dc abe3 f203 51bb e03d d7ef
00000040: 10fe 230d e119 e938 bde5 f0ec 1081 2f16
00000050: 7fe9 b605 f9a5 ff15 032d 820f 1fec eb2d
00000060: 9ead f754 ae03 b72f 91b5 bdb4 2b4c e47f
00000070: f210 a82b 3881 e429 06d8 1903 ea26 c113
00000080: 2cd7 0c10 1f25 bbbc f700 a32e 810f 011b
00000090: 08c5 247c 1412 efb6 7fbb 0be9 ed59 c013
000000a0: c1bf edd2 5026 f034 5cc8 b506 2199 8120
000000b0: 2603 8116 300d fd2d efe9 ec01 101b d203
000000c0: 68d3 e126 f9d8 e7fe 1b0a 8105 e2e1 0d1b
000000d0: 61b5 f3aa 67c5 9a9a 3f81 d432 3aed 43e0
000000e0: cf1b aadf 4281 3fc4 242b fec0 1253 0517
000000f0: 0e0b 3b0b 23e4 d7f3 05d1 c9f5 81c5 e622
34 -10 124 127 29 -46 15 -46
101 30 -66 -70 55 61 -14 -64
122 40 -29 28 114 -20 49 78
117 52 -56 125 49 -13 101 -127
4 -63 -2 9 -44 68 -47 77
-47 -83 23 46 -9 -127 105 -114
110 102 -9 7 -127 -36 -85 -29
-14 3 81 -69 -32 61 -41 -17
16 -2 35 13 -31 25 -23 56
-67 -27 -16 -20 16 -127 47 22
127 -23 -74 5 -7 -91 -1 21
3 45 -126 15 31 -20 -21 45
-98 -83 -9 84 -82 3 -73 47
-111 -75 -67 -76 43 76 -28 127
-14 16 -88 43 56 -127 -28 41
6 -40 25 3 -22 38 -63 19
44 -41 12 16 31 37 -69 -68
-9 0 -93 46 -127 15 1 27
8 -59 36 124 20 18 -17 -74
127 -69 11 -23 -19 89 -64 19
-63 -65 -19 -46 80 38 -16 52
92 -56 -75 6 33 -103 -127 32
38 3 -127 22 48 13 -3 45
-17 -23 -20 1 16 27 -46 3
104 -45 -31 38 -7 -40 -25 -2
27 10 -127 5 -30 -31 13 27
97 -75 -13 -86 103 -59 -102 -102
63 -127 -44 50 58 -19 67 -32
-49 27 -86 -33 66 -127 63 -60
36 43 -2 -64 18 83 5 23
14 11 59 11 35 -28 -41 -13
5 -47 -55 -11 -127 -59 -26 34

model_1/block_3_project/Conv2D i1 [16, 1, 1, 48]
00000000: f3f7 f007 1af5 0562 cc09 1af4 18ef f711
00000010: 13f8 f5f8 3ef4 177e e552 fded 12e4 18f1
00000020: f02b 13cd 0d24 08f2 9bed 1a2e 1e1b 81d2
00000030: e1eb 0f15 e203 043b c3d5 fbd3 eee8 0301
00000040: e57d f417 fd07 eaf5 16d3 0e18 da9d de12
00000050: e804 2501 fec5 f618 f7d8 7f13 02fd 18ee
00000060: ebf9 f9db 03c6 feea ff0d 0d15 0f14 f408
00000070: faee edfa fffd fe81 fb46 fa03 02ef fa09
00000080: f530 0901 170e 1afd d706 f2fb 03f6 0f0f
00000090: f622 ffdc fa02 fffe e5fd 0923 810e f8ff
000000a0: 080f f505 e304 070d faf6 051a f30c 040f
000000b0: 0205 0d14 f51b 2d0c 0705 1adc 0efa 0713
000000c0: 20db 060a 1413 13e7 d707 eee4 030d fd0d
000000d0: 16f5 b005 fa08 124e f5e2 0836 05aa 16fb
000000e0: 09dd 2081 121e fd10 ed10 fee6 f1eb 0f01
000000f0: 16fb ed34 fefc 041d 0900 340e 043a 07fb
-13 -9 -16 7 26 -11 5 98
-52 9 26 -12 24 -17 -9 17
19 -8 -11 -8 62 -12 23 126
-27 82 -3 -19 18 -28 24 -15
-16 43 19 -51 13 36 8 -14
-101 -19 26 46 30 27 -127 -46
-31 -21 15 21 -30 3 4 59
-61 -43 -5 -45 -18 -24 3 1
-27 125 -12 23 -3 7 -22 -11
22 -45 14 24 -38 -99 -34 18
-24 4 37 1 -2 -59 -10 24
-9 -40 127 19 2 -3 24 -18
-21 -7 -7 -37 3 -58 -2 -22
-1 13 13 21 15 20 -12 8
-6 -18 -19 -6 -1 -3 -2 -127
-5 70 -6 3 2 -17 -6 9
-11 48 9 1 23 14 26 -3
-41 6 -14 -5 3 -10 15 15
-10 34 -1 -36 -6 2 -1 -2
-27 -3 9 35 -127 14 -8 -1
8 15 -11 5 -29 4 7 13
-6 -10 5 26 -13 12 4 15
2 5 13 20 -11 27 45 12
7 5 26 -36 14 -6 7 19
32 -37 6 10 20 19 19 -25
-41 7 -18 -28 3 13 -3 13
22 -11 -80 5 -6 8 18 78
-11 -30 8 54 5 -86 22 -5
9 -35 32 -127 18 30 -3 16
-19 16 -2 -26 -15 -21 15 1
22 -5 -19 52 -2 -4 4 29
9 0 52 14 4 58 7 -5

model_1/block_3_depthwise_BN/FusedBatchNormV3;model_1/block_3_depthwise/depthwise i1 [1, 3, 3, 48]
00000000: 47a0 6347 34de 6bc1 3aaa b42e 35d2 b8a7
00000010: 6552 314e 41b5 ab34 dfd7 bebb bc3d c193
00000020: f02b 4440 c136 cced 31b6 383b a60b 4fde
00000030: 549e 7f55 b3b9 caac 5d9c c549 5193 a45b
00000040: d863 527f 538d 3647 ccb2 b8ac 364f e181
00000050: ab4f 5153 ae51 acf0 4ca1 525b b881 5f99
00000060: 23ce 4828 11d5 d3d9 2ce1 0621 1faf ca00
00000070: c728 2346 21ca 1f19 e4d2 d4e8 1f20 5ba8
00000080: af2a 2523 e026 dbf5 26d7 232b faf7 24b6
00000090: 5e8e d65c 37ab 7fa8 588e b852 568f f181
000000a0: 7f6b 4ad9 4f6b 8149 47b4 a49c 8159 b9f9
000000b0: ac47 6a61 ab4d af5b 5499 575b aa6c 5fa3
000000c0: 7f81 bc7f 8181 a681 7f81 817f 7f81 ec5e
000000d0: bd7f 7fcb 7f7f 467f 7f81 8181 337f e20d
000000e0: 817f 7f7f 817f 817f 7f81 7f7f 81f5 7f81
000000f0: 3eaa de43 26c0 cfc0 3bd6 c639 32cd f00a
71 -96 99 71 52 -34 107 -63
58 -86 -76 46 53 -46 -72 -89
101 82 49 78 65 -75 -85 52
-33 -41 -66 -69 -68 61 -63 -109
-16 43 68 64 -63 54 -52 -19
49 -74 56 59 -90 11 79 -34
84 -98 127 85 -77 -71 -54 -84
93 -100 -59 73 81 -109 -92 91
-40 99 82 127 83 -115 54 71
-52 -78 -72 -84 54 79 -31 -127
-85 79 81 83 -82 81 -84 -16
76 -95 82 91 -72 -127 95 -103
35 -50 72 40 17 -43 -45 -39
44 -31 6 33 31 -81 -54 0
-57 40 35 70 33 -54 31 25
-28 -46 -44 -24 31 32 91 -88
-81 42 37 35 -32 38 -37 -11
38 -41 35 43 -6 -9 36 -74
94 -114 -42 92 55 -85 127 -88
88 -114 -72 82 86 -113 -15 -127
127 107 74 -39 79 107 -127 73
71 -76 -92 -100 -127 89 -71 -7
-84 71 106 97 -85 77 -81 91
84 -103 87 91 -86 108 95 -93
127 -127 -68 127 -127 -127 -90 -127
127 -127 -127 127 127 -127 -20 94
-67 127 127 -53 127 127 70 127
127 -127 -127 -127 51 127 -30 13
-127 127 127 127 -127 127 -127 127
127 -127 127 127 -127 -11 127 -127
62 -86 -34 67 38 -64 -49 -64
59 -42 -58 57 50 -51 -16 10

model_1/block_3_expand/Conv2D i1 [48, 1, 1, 8]
00000000: 81ff fe46 d72e 21ea 1444 3a2c f2d8 667f
00000010: d208 1efe 81e9 17fd 5c01 0484 811a 2adf
00000020: 8139 f0f5 3a04 24fd 93e3 0dfe 8117 0e5c
00000030: e981 28e8 17f9 fb29 b506 0b6e 7fdc dbf8
00000040: 2e01 fc81 04f1 c7d7 f581 01f3 1264 d455
00000050: 97fd fd14 815f 5dec 7204 2010 d0d2 cf81
00000060: fd07 2ff8 06bc 7f3d 45df edf5 767f 76e2
00000070: 7f24 eef9 acfe d0e4 ed81 10e7 f906 021c
00000080: c1e6 faf2 81f3 0505 ca7f 8bf9 0285 7f94
00000090: 7fe6 e011 cd10 0f5f 7fd9 f2eb 3606 2101
000000a0: 7f13 fa7a f931 03be 1d18 b413 e06b 81a0
000000b0: 811c 16f9 f108 def3 dbc7 0318 813f 4ef7
000000c0: 7ffe f1fd b7f8 0a21 1bf5 06e8 7f27 28de
000000d0: f3a4 09e2 1781 40d6 f181 1fed ffc8 1df5
000000e0: b118 f806 e8f4 7f5f e62a 0402 0025 9781
000000f0: 7fe6 fd1c bff4 e20b e7e9 40f1 0a81 7637
-127 -1 -2 70 -41 46 33 -22
20 68 58 44 -14 -40 102 127
-46 8 30 -2 -127 -23 23 -3
92 1 4 -124 -127 26 42 -33
-127 57 -16 -11 58 4 36 -3
-109 -29 13 -2 -127 23 14 92
-23 -127 40 -24 23 -7 -5 41
-75 6 11 110 127 -36 -37 -8
46 1 -4 -127 4 -15 -57 -41
-11 -127 1 -13 18 100 -44 85
-105 -3 -3 20 -127 95 93 -20
114 4 32 16 -48 -46 -49 -127
-3 7 47 -8 6 -68 127 61
69 -33 -19 -11 118 127 118 -30
127 36 -18 -7 -84 -2 -48 -28
-19 -127 16 -25 -7 6 2 28
-63 -26 -6 -14 -127 -13 5 5
-54 127 -117 -7 2 -123 127 -108
127 -26 -32 17 -51 16 15 95
127 -39 -14 -21 54 6 33 1
127 19 -6 122 -7 49 3 -66
29 24 -76 19 -32 107 -127 -96
-127 28 22 -7 -15 8 -34 -13
-37 -57 3 24 -127 63 78 -9
127 -2 -15 -3 -73 -8 10 33
27 -11 6 -24 127 39 40 -34
-13 -92 9 -30 23 -127 64 -42
-15 -127 31 -19 -1 -56 29 -11
-79 24 -8 6 -24 -12 127 95
-26 42 4 2 0 37 -105 -127
127 -26 -3 28 -65 -12 -30 11
-25 -23 64 -15 10 -127 118 55

model_1/block_2_project/Conv2D i1 [8, 1, 1, 48]
00000000: d1ea d3fc 13f9 01fa 887d e964 6801 57eb
00000010: f3ea f500 18fe ebd5 1896 2748 f10b 0adc
00000020: 02b0 7f1f 09ff 04f6 6603 2ee1 ea09 f0fb
00000030: 0617 7f0d f9ef 01b4 19ff 0f19 ec02 0185
00000040: 03ae 1b00 e732 10de e2f3 08f7 0dfd 0105
00000050: 0d0e 1a1c fad5 46c2 0636 fc15 f015 1305
00000060: 01cd 0fcc 1c23 f8e8 0af8 fd06 f339 0800
00000070: cf7f ebdf f013 d9f1 79fe 02f9 e4fd fed8
00000080: 04f3 f808 eff8 f40b 12eb edff 031d ded8
00000090: 03a8 fb04 02f4 f603 f6f6 0c1f 12f8 3205
000000a0: f1e7 0e16 f417 ea06 0537 0106 f70b 7ffd
000000b0: 0fff fc05 e2eb fa0a f201 fb19 fe04 ff1b
000000c0: 9605 ffff 03d9 ff05 21dd 12f0 defd ebf8
000000d0: fa02 0619 07e1 0904 f733 0f6d f900 01e2
000000e0: 0281 de11 1101 fbff cbfa eb0e cdfd 0a06
000000f0: e319 0c0d d80e fa3b 0e04 0808 f9d1 001f
-47 -22 -45 -4 19 -7 1 -6
-120 125 -23 100 104 1 87 -21
-13 -22 -11 0 24 -2 -21 -43
24 -106 39 72 -15 11 10 -36
2 -80 127 31 9 -1 4 -10
102 3 46 -31 -22 9 -16 -5
6 23 127 13 -7 -17 1 -76
25 -1 15 25 -20 2 1 -123
3 -82 27 0 -25 50 16 -34
-30 -13 8 -9 13 -3 1 5
13 14 26 28 -6 -43 70 -62
6 54 -4 21 -16 21 19 5
1 -51 15 -52 28 35 -8 -24
10 -8 -3 6 -13 57 8 0
-49 127 -21 -33 -16 19 -39 -15
121 -2 2 -7 -28 -3 -2 -40
4 -13 -8 8 -17 -8 -12 11
18 -21 -19 -1 3 29 -34 -40
3 -88 -5 4 2 -12 -10 3
-10 -10 12 31 18 -8 50 5
-15 -25 14 22 -12 23 -22 6
5 55 1 6 -9 11 127 -3
15 -1 -4 5 -30 -21 -6 10
-14 1 -5 25 -2 4 -1 27
-106 5 -1 -1 3 -39 -1 5
33 -35 18 -16 -34 -3 -21 -8
-6 2 6 25 7 -31 9 4
-9 51 15 109 -7 0 1 -30
2 -127 -34 17 17 1 -5 -1
-53 -6 -21 14 -51 -3 10 6
-29 25 12 13 -40 14 -6 59
14 4 8 8 -7 -47 0 31

model_1/block_2_depthwise_BN/FusedBatchNormV3;model_1/block_2_depthwise/depthwise;model_1/block_3_depthwise/depthwise i1 [1, 3, 3, 48]
00000000: 04fe 146e 0451 001c 1109 0809 f5f7 d208
00000010: ff08 eb8d fae9 7ff6 fd07 fa09 fa05 1164
00000020: 151d 27e4 0122 fe03 11bc faf8 1204 f9f7
00000030: 7f0a 0e81 1d57 0b0b 7c7f 072c cce7 0507
00000040: 7fc8 c6c6 9b19 940f 1247 e0aa 1715 0984
00000050: 06c5 7f09 d7d1 fa75 b0a1 e203 def8 8118
00000060: e0fd 080f 0041 0511 1b09 f220 f0fc 1103
00000070: 991c fb4a e1f4 eefa fbc2 fd1c ef05 05ea
00000080: 09e9 11ed fe30 2af4 3227 f00c d504 00fa
00000090: 7b07 009f 0ee5 23ef 0a0a f336 faff 13de
000000a0: 01cf c7ad 0bb6 85ee 0566 f181 f721 0c94
000000b0: 11cd fe7f fd3a d728 c181 28a9 d5f3 f3fc
000000c0: 1a81 8173 8181 8181 81a2 7f81 7f7f 2481
000000d0: ac7f 7f98 7f7f 6f7f 7f81 811d 8181 5f7f
000000e0: 817f e3d5 7f81 7f7f 7fb1 7f7f 7f89 666b
000000f0: 3505 30f3 06c3 2d12 ea0e 95f8 01d6 7f03
4 -2 20 110 4 81 0 28
17 9 8 9 -11 -9 -46 8
-1 8 -21 -115 -6 -23 127 -10
-3 7 -6 9 -6 5 17 100
21 29 39 -28 1 34 -2 3
17 -68 -6 -8 18 4 -7 -9
127 10 14 -127 29 87 11 11
124 127 7 44 -52 -25 5 7
127 -56 -58 -58 -101 25 -108 15
18 71 -32 -86 23 21 9 -124
6 -59 127 9 -41 -47 -6 117
-80 -95 -30 3 -34 -8 -127 24
-32 -3 8 15 0 65 5 17
27 9 -14 32 -16 -4 17 3
-103 28 -5 74 -31 -12 -18 -6
-5 -62 -3 28 -17 5 5 -22
9 -23 17 -19 -2 48 42 -12
50 39 -16 12 -43 4 0 -6
123 7 0 -97 14 -27 35 -17
10 10 -13 54 -6 -1 19 -34
1 -49 -57 -83 11 -74 -123 -18
5 102 -15 -127 -9 33 12 -108
17 -51 -2 127 -3 58 -41 40
-63 -127 40 -87 -43 -13 -13 -4
26 -127 -127 115 -127 -127 -127 -127
-127 -94 127 -127 127 127 36 -127
-84 127 127 -104 127 127 111 127
127 -127 -127 29 -127 -127 95 127
-127 127 -29 -43 127 -127 127 127
127 -79 127 127 127 -119 102 107
53 5 48 -13 6 -61 45 18
-22 14 -107 -8 1 -42 127 3

model_1/block_2_expand/Conv2D i1 [48, 1, 1, 8]
00000000: 6f1f f80e 7f18 d5eb fd02 047f fff6 0613
00000010: 0a81 ea35 ebca 4b03 7fe2 f406 f7d6 1f0b
00000020: 0dc3 7fe3 f2cb 2399 6806 0914 7f22 df00
00000030: ea3a ef7f 1428 cbe6 f07f 0405 03fa 03f5
00000040: 7f43 effd ced8 0acb 810d 181d 300b e90e
00000050: dae3 ef7f 0d18 010d 8102 1ebf 1604 dbe1
00000060: 7f1f 1116 eaf3 0fdc f946 81fd 0067 bd3c
00000070: c5e0 fb7f 19fe 1201 f97f 06fe fefa 03c8
00000080: d781 ed01 f7a3 67e6 097f 0aff f83f acf4
00000090: 0720 8101 113e e82f d40c f3fb 81f4 ff33
000000a0: 99e5 ffec 7ff8 50f9 dbf6 f004 810b 03f7
000000b0: 81df 030d 3bf2 2d3d ecf0 fbfb f459 8197
000000c0: f325 8102 0d23 eb53 51eb f57f d6f7 05c7
000000d0: 0af3 fc04 f17f 70d9 50ee ee14 7f1c 41f2
000000e0: 037f ca0a 133a cd76 f011 fbe7 075b 819c
000000f0: 03ff 0381 fbf8 fef7 ce09 0700 8102 f1f9
111 31 -8 14 127 24 -43 -21
-3 2 4 127 -1 -10 6 19
10 -127 -22 53 -21 -54 75 3
127 -30 -12 6 -9 -42 31 11
13 -61 127 -29 -14 -53 35 -103
104 6 9 20 127 34 -33 0
-22 58 -17 127 20 40 -53 -26
-16 127 4 5 3 -6 3 -11
127 67 -17 -3 -50 -40 10 -53
-127 13 24 29 48 11 -23 14
-38 -29 -17 127 13 24 1 13
-127 2 30 -65 22 4 -37 -31
127 31 17 22 -22 -13 15 -36
-7 70 -127 -3 0 103 -67 60
-59 -32 -5 127 25 -2 18 1
-7 127 6 -2 -2 -6 3 -56
-41 -127 -19 1 -9 -93 103 -26
9 127 10 -1 -8 63 -84 -12
7 32 -127 1 17 62 -24 47
-44 12 -13 -5 -127 -12 -1 51
-103 -27 -1 -20 127 -8 80 -7
-37 -10 -16 4 -127 11 3 -9
-127 -33 3 13 59 -14 45 61
-20 -16 -5 -5 -12 89 -127 -105
-13 37 -127 2 13 35 -21 83
81 -21 -11 127 -42 -9 5 -57
10 -13 -4 4 -15 127 112 -39
80 -18 -18 20 127 28 65 -14
3 127 -54 10 19 58 -51 118
-16 17 -5 -25 7 91 -127 -100
3 -1 3 -127 -5 -8 -2 -9
-50 9 7 0 -127 2 -15 -7

model_1/block_1_project/Conv2D i1 [8, 1, 1, 48]
00000000: f701 0f9f 0d1d 0609 05ff 03fa 6600 0105
00000010: 00f8 f9fb 5302 0008 272c 130e 05ff 0481
00000020: 0b06 0106 ebfc f021 06e2 f608 0002 0205
00000030: e0fd 0401 260e e653 130d dfed ff00 131c
00000040: 0030 05ce f41b 7f19 dbfc 36fd 1dfc 09e9
00000050: 0ef4 ede8 08ce 1601 f8f4 b1f8 dd0a d0a0
00000060: c50d ff0b 2cf5 1b1c f737 11fc 0100 0639
00000070: 000b 811c fb0c 08f0 da00 2806 071e 1200
00000080: 0af9 f7ef 0405 1006 22fb e600 1cc3 1910
00000090: 0209 f905 fb15 03f9 450c 00fb 1a00 dff7
000000a0: 00f8 f602 fefe 06f6 f6f4 fc05 f4fe fef5
000000b0: dc30 ca03 04fe fb81 fe0a 01cc 0403 0308
000000c0: fffa 5123 03ea 0403 07fa fbf3 ad00 ee02
000000d0: 000e 0506 4408 04fe f122 f631 f700 0164
000000e0: 0405 02ff 0af3 f9f1 fd81 0703 fefe 0002
000000f0: fa2c 09f4 ff30 140e e518 0b3b 1d00 81fb
-9 1 15 -97 13 29 6 9
5 -1 3 -6 102 0 1 5
0 -8 -7 -5 83 2 0 8
39 44 19 14 5 -1 4 -127
11 6 1 6 -21 -4 -16 33
6 -30 -10 8 0 2 2 5
-32 -3 4 1 38 14 -26 83
19 13 -33 -19 -1 0 19 28
0 48 5 -50 -12 27 127 25
-37 -4 54 -3 29 -4 9 -23
14 -12 -19 -24 8 -50 22 1
-8 -12 -79 -8 -35 10 -48 -96
-59 13 -1 11 44 -11 27 28
-9 55 17 -4 1 0 6 57
0 11 -127 28 -5 12 8 -16
-38 0 40 6 7 30 18 0
10 -7 -9 -17 4 5 16 6
34 -5 -26 0 28 -61 25 16
2 9 -7 5 -5 21 3 -7
69 12 0 -5 26 0 -33 -9
0 -8 -10 2 -2 -2 6 -10
-10 -12 -4 5 -12 -2 -2 -11
-36 48 -54 3 4 -2 -5 -127
-2 10 1 -52 4 3 3 8
-1 -6 81 35 3 -22 4 3
7 -6 -5 -13 -83 0 -18 2
0 14 5 6 68 8 4 -2
-15 34 -10 49 -9 0 1 100
4 5 2 -1 10 -13 -7 -15
-3 -127 7 3 -2 -2 0 2
-6 44 9 -12 -1 48 20 14
-27 24 11 59 29 0 -127 -5

model_1/block_1_depthwise_BN/FusedBatchNormV3;model_1/block_1_depthwise/depthwise;model_1/block_3_depthwise/depthwise i1 [1, 3, 3, 48]
00000000: d4e8 f9ef 09d9 b1bd e5cd 0941 22b9 73d6
00000010: 8fad 25fa ffb6 90ae e081 c0e6 470e 5f1a
00000020: 81a6 fa36 1030 814f b4f2 6994 fdde aa6b
00000030: 490c e4e3 3981 81af 3db5 8e6a 25ae ff3e
00000040: cc91 3b07 0b8c 81ba fd81 88d4 c915 c836
00000050: 1d81 4153 0d49 a47f 8106 7f81 01ea 815f
00000060: df2a 06fc c094 c5ee 57f6 8123 07b9 9bf5
00000070: 81e5 1b0b f0b4 dde8 f7e3 c7f2 f610 e80a
00000080: 6aa9 491f 0c24 fb11 b102 08af ee07 c90c
00000090: ab81 d4d3 f836 6198 e595 eb73 5bc0 1ca2
000000a0: 87a3 58b3 2aa7 9b81 2c87 b1d8 7fc5 7f54
000000b0: d4a7 f353 dcb3 955a 2b3a 6795 a48b 5378
000000c0: 7fad 8181 7f28 5c81 6581 8f7f 7ff2 fa7f
000000d0: c481 7f81 7f81 8c88 7f9d 8181 8881 b97f
000000e0: 1d8f 7f7f bc81 a15a 3d7f 7f8b 8e81 7d7f
000000f0: ca1d c3aa 89ea 1edc 7feb b324 37ba e7d5
-44 -24 -7 -17 9 -39 -79 -67
-27 -51 9 65 34 -71 115 -42
-113 -83 37 -6 -1 -74 -112 -82
-32 -127 -64 -26 71 14 95 26
-127 -90 -6 54 16 48 -127 79
-76 -14 105 -108 -3 -34 -86 107
73 12 -28 -29 57 -127 -127 -81
61 -75 -114 106 37 -82 -1 62
-52 -111 59 7 11 -116 -127 -70
-3 -127 -120 -44 -55 21 -56 54
29 -127 65 83 13 73 -92 127
-127 6 127 -127 1 -22 -127 95
-33 42 6 -4 -64 -108 -59 -18
87 -10 -127 35 7 -71 -101 -11
-127 -27 27 11 -16 -76 -35 -24
-9 -29 -57 -14 -10 16 -24 10
106 -87 73 31 12 36 -5 17
-79 2 8 -81 -18 7 -55 12
-85 -127 -44 -45 -8 54 97 -104
-27 -107 -21 115 91 -64 28 -94
-121 -93 88 -77 42 -89 -101 -127
44 -121 -79 -40 127 -59 127 84
-44 -89 -13 83 -36 -77 -107 90
43 58 103 -107 -92 -117 83 120
127 -83 -127 -127 127 40 92 -127
101 -127 -113 127 127 -14 -6 127
-60 -127 127 -127 127 -127 -116 -120
127 -99 -127 -127 -120 -127 -71 127
29 -113 127 127 -68 -127 -95 90
61 127 127 -117 -114 -127 125 127
-54 29 -61 -86 -119 -22 30 -36
127 -21 -77 36 55 -70 -25 -43

model_1/block_1_expand/Conv2D i1 [48, 1, 1, 8]
00000000: 1481 30da 1eef cf15 5e52 f0a8 0dfb a97f
00000010: 1707 da68 267f 2a4d 4f49 a47f 9af5 0e1b
00000020: e095 530e f426 cb81 1806 e12f 0cec 2e7f
00000030: 22fd 8181 6107 26c3 7f07 07ef 25f6 65bc
00000040: 0f96 006c 0613 f881 6181 0802 f506 8956
00000050: 88c8 811a f8fd 9c29 efe4 faa3 81e2 29f2
00000060: 0800 cd49 b2e3 4d7f 0000 0000 0000 0000
00000070: f9e7 f710 267f 2f2b 2eff 0c81 3a21 ce51
00000080: 0000 0000 0000 0000 0c17 7f20 eded 2730
00000090: 5f81 1229 0711 930b 8109 3347 b5a2 8a2b
000000a0: 2321 d275 e581 0946 4114 7f09 eef5 3b09
000000b0: b9f2 8106 0908 a50c a461 e1ef 0ff4 7fbf
000000c0: 0acd d150 f4c3 5c7f 0930 201a 7f65 b8cb
000000d0: aee6 81f5 0e0b b7fe fdee ea04 df7f 332b
000000e0: 01f4 f324 167f 222c 631a 7f04 06ee 59fb
000000f0: bc7f f5e7 0804 4cc7 d8a1 e1fe 2d9c 7f6d
20 -127 48 -38 30 -17 -49 21
94 82 -16 -88 13 -5 -87 127
23 7 -38 104 38 127 42 77
79 73 -92 127 -102 -11 14 27
-32 -107 83 14 -12 38 -53 -127
24 6 -31 47 12 -20 46 127
34 -3 -127 -127 97 7 38 -61
127 7 7 -17 37 -10 101 -68
15 -106 0 108 6 19 -8 -127
97 -127 8 2 -11 6 -119 86
-120 -56 -127 26 -8 -3 -100 41
-17 -28 -6 -93 -127 -30 41 -14
8 0 -51 73 -78 -29 77 127
0 0 0 0 0 0 0 0
-7 -25 -9 16 38 127 47 43
46 -1 12 -127 58 33 -50 81
0 0 0 0 0 0 0 0
12 23 127 32 -19 -19 39 48
95 -127 18 41 7 17 -109 11
-127 9 51 71 -75 -94 -118 43
35 33 -46 117 -27 -127 9 70
65 20 127 9 -18 -11 59 9
-71 -14 -127 6 9 8 -91 12
-92 97 -31 -17 15 -12 127 -65
10 -51 -47 80 -12 -61 92 127
9 48 32 26 127 101 -72 -53
-82 -26 -127 -11 14 11 -73 -2
-3 -18 -22 4 -33 127 51 43
1 -12 -13 36 22 127 34 44
99 26 127 4 6 -18 89 -5
-68 127 -11 -25 8 4 76 -57
-40 -95 -31 -2 45 -100 127 109

model_1/expanded_conv_project/Conv2D i1 [8, 1, 1, 16]
00000000: 00f4 02fd 7ffe fefc 018d aa03 006e 0500
00000010: 00ee 0257 4407 160a 01fa 7fd4 001e f400
00000020: 0000 03f4 c802 0c02 0109 ed01 007f f700
00000030: 00fc e581 5112 4507 ff3a 002e 00fe 1500
00000040: 002a e722 c620 7f00 01c2 12f9 00f8 0a00
00000050: 00f0 f500 eaef f10b ff0b fdd6 00fb 7f00
00000060: 0018 fa01 35ea e6fa 018c 7742 007f 3f00
00000070: 0011 f37f 07fd 0d03 ff41 d14c 00f9 2f00
0 -12 2 -3 127 -2 -2 -4
1 -115 -86 3 0 110 5 0
0 -18 2 87 68 7 22 10
1 -6 127 -44 0 30 -12 0
0 0 3 -12 -56 2 12 2
1 9 -19 1 0 127 -9 0
0 -4 -27 -127 81 18 69 7
-1 58 0 46 0 -2 21 0
0 42 -25 34 -58 32 127 0
1 -62 18 -7 0 -8 10 0
0 -16 -11 0 -22 -17 -15 11
-1 11 -3 -42 0 -5 127 0
0 24 -6 1 53 -22 -26 -6
1 -116 119 66 0 127 63 0
0 17 -13 127 7 -3 13 3
-1 65 -47 76 0 -7 47 0

model_1/expanded_conv_depthwise_BN/FusedBatchNormV3;model_1/expanded_conv_depthwise/depthwise;model_1/block_5_project/Conv2D i1 [1, 3, 3, 16]
00000000: 9412 ad82 27bd 50b4 a6fd f81d 8105 36b7
00000010: 3318 817f 7f81 7f81 ab7f 8133 9705 7fe7
00000020: 18e7 5afe b843 a14b a1e5 04f1 3d01 9be3
00000030: 817f e80d d40f e30c e400 0394 cf08 e3f2
00000040: b2d6 c6f1 f8e6 08e3 94a7 14f4 9881 0117
00000050: 0e00 4102 0321 e71f 8106 ff02 eb0c fc2b
00000060: 8db7 4302 f926 d932 b400 0003 2802 e617
00000070: 17fb 1efe e427 de13 83f3 0052 c600 e491
00000080: 15f8 1200 040e 0915 8d04 ff81 6b02 1181
-108 18 -83 -126 39 -67 80 -76
-90 -3 -8 29 -127 5 54 -73
51 24 -127 127 127 -127 127 -127
-85 127 -127 51 -105 5 127 -25
24 -25 90 -2 -72 67 -95 75
-95 -27 4 -15 61 1 -101 -29
-127 127 -24 13 -44 15 -29 12
-28 0 3 -108 -49 8 -29 -14
-78 -42 -58 -15 -8 -26 8 -29
-108 -89 20 -12 -104 -127 1 23
14 0 65 2 3 33 -25 31
-127 6 -1 2 -21 12 -4 43
-115 -73 67 2 -7 38 -39 50
-76 0 0 3 40 2 -26 23
23 -5 30 -2 -28 39 -34 19
-125 -13 0 82 -58 0 -28 -111
21 -8 18 0 4 14 9 21
-115 4 -1 -127 107 2 17 -127

model_1/Conv1/Conv2D i1 [16, 3, 3, 3]
00000000: 0000 0000 0000 0000 0000 0000 0000 0000
00000010: 0000 0000 0000 0000 0000 002d 0027 f7eb
00000020: 1b81 97d5 02fe 08e6 0306 f6e4 10f9 1104
00000030: f406 051a f112 2ef4 fd5b 7205 24da 1119
00000040: 0200 4d7f e711 fe04 41b5 1751 caea 1fc8
00000050: 1a00 1a01 195e 1bfe 0c03 0e1f 023d 7f1d
00000060: f7f6 0701 fafa 1215 0401 fe03 1034 e6fe
00000070: 40e6 ef13 f216 4412 0d5b 0119 38e3 375b
00000080: 1931 7f08 f82c 0e0e fa8b 03fb a000 18ec
00000090: 0bcd 8106 cc98 0508 f103 01e8 09f7 f407
000000a0: 06f4 1bc4 2530 ab2a 0cf0 0a26 a13f 4081
000000b0: 4808 e50f 16df 0f0f d41a f308 fde9 1207
000000c0: a2de 03ec 1904 f4fb 0381 aaf9 f4fd 05e8
000000d0: 1ef9 eb09 fde6 18fd 7f7e 387e 7e3d 7f7b
000000e0: 3a7f 7c3d 7d7b 3d7f 7734 7f73 357e 712f
000000f0: 7f68 22ee f409 f4ec ff05 00f6 5b6c fe4a
0 0 0 0 0 0 0 0
0 0 0 0 0 0 0 0
0 0 0 0 0 0 0 0
0 0 0 45 0 39 -9 -21
27 -127 -105 -43 2 -2 8 -26
3 6 -10 -28 16 -7 17 4
-12 6 5 26 -15 18 46 -12
-3 91 114 5 36 -38 17 25
2 0 77 127 -25 17 -2 4
65 -75 23 81 -54 -22 31 -56
26 0 26 1 25 94 27 -2
12 3 14 31 2 61 127 29
-9 -10 7 1 -6 -6 18 21
4 1 -2 3 16 52 -26 -2
64 -26 -17 19 -14 22 68 18
13 91 1 25 56 -29 55 91
25 49 127 8 -8 44 14 14
-6 -117 3 -5 -96 0 24 -20
11 -51 -127 6 -52 -104 5 8
-15 3 1 -24 9 -9 -12 7
6 -12 27 -60 37 48 -85 42
12 -16 10 38 -95 63 64 -127
72 8 -27 15 22 -33 15 15
-44 26 -13 8 -3 -23 18 7
-94 -34 3 -20 25 4 -12 -5
3 -127 -86 -7 -12 -3 5 -24
30 -7 -21 9 -3 -26 24 -3
127 126 56 126 126 61 127 123
58 127 124 61 125 123 61 127
119 52 127 115 53 126 113 47
127 104 34 -18 -12 9 -12 -20
-1 5 0 -10 91 108 -2 74
